gaze_direction_predictor4.pt (torch_old, 5666 bytes, 20 tensors)

cnn_layers.0.weight f4 [4, 1, 3, 3]
000000 e9 71 a9 be b2 d7 2a bf 30 b6 48 bf 74 51 4e bd
       -0.3309472 -0.66735375 -0.78402996 -0.05037065
000010 25 54 f8 be b2 45 b5 be 13 55 29 be be 04 a9 be
       -0.48501697 -0.35404736 -0.1653636 -0.3301143
000020 b4 7b a9 be 17 ff d6 3e 9d dc e1 3e 41 e6 94 3e
       -0.3310219 0.41991493 0.44113627 0.2908192
000030 ff 3b 83 be 78 3d f6 3d ca be 89 3e 82 b1 b3 be
       -0.2563171 0.12023443 0.26903373 -0.35096365
000040 f3 a7 59 bf f0 db 9f bc de 7a a3 be 79 8e 89 3d
       -0.85021895 -0.019514054 -0.31929678 0.06716628
000050 fa 3d 16 be 10 54 20 3d c4 2f 21 bb 96 8a 0d 3d
       -0.1467208 0.03914267 -0.002459512 0.034555994
000060 98 60 47 3f 7c 78 98 3f e0 33 ce 3e 6e b8 b1 3e
       0.77881765 1.1911769 0.40273952 0.3471102
000070 b8 15 2c 3f 8d ff fc 3e e8 48 98 3e 08 76 c8 3e
       0.6722064 0.4941372 0.29743123 0.3915255
000080 e4 be db bd a8 65 f2 3e 0c e6 37 3f 60 b0 b3 3d
       -0.10729769 0.47343183 0.718354 0.08773875

cnn_layers.0.bias f4 [4]
000000 2f 20 db 3e 28 3f e1 bd 9c fe 06 3c 41 7c bf 3e
       0.42797992 -0.10998374 0.008239415 0.37399486

cnn_layers.1.weight f4 [4]
000000 7f 8d 21 3f 0a ab e8 3e 84 d8 41 3f 5e 34 b1 3e
       0.6310653 0.45442992 0.75721 0.34610265

cnn_layers.1.bias f4 [4]
000000 d8 0b 79 3c 62 bc 73 3d 77 15 6f 3e f7 db 24 3f
       0.015200578 0.059505828 0.23348032 0.6439814

cnn_layers.1.running_mean f4 [4]
000000 2c ec 8f bf d2 8c 53 bd e2 ea 50 3f 06 17 e9 3f
       -1.1243949 -0.05164797 0.816084 1.8210151

cnn_layers.1.running_var f4 [4]
000000 75 20 3e 3f 20 93 20 3e 91 93 c5 3e 80 e0 2b 3f
       0.74268275 0.15681124 0.38589147 0.67139435

cnn_layers.4.weight f4 [4, 4, 3, 3]
000000 67 38 d0 be c5 3b 21 bf 43 39 a1 be 59 0c 10 be
       -0.40668032 -0.62981826 -0.31489 -0.1406721
000010 6e d0 fd be 99 c2 3b bf 6d a8 ba bd c2 0f ef be
       -0.49573082 -0.7334381 -0.09114156 -0.4669171
000020 9c 05 e9 be 7f 27 7c 3e a4 50 84 bc 13 e6 9f be
       -0.45512092 0.24624442 -0.016151734 -0.3123022
000030 50 20 a3 bd 58 ce d6 bd cc ed cb be 66 b0 17 be
       -0.079651475 -0.10488576 -0.39829862 -0.14813384
000040 3f 58 99 3e 2c 74 00 3f 7d e2 26 3e 51 3f 36 bf
       0.2995014 0.50177264 0.16297336 -0.71190363
000050 0c b0 11 bf 9a 88 97 be a2 f4 6c be 69 bc 4f be
       -0.5690925 -0.29596406 -0.23140195 -0.20286717
000060 73 ed 9e be 78 3b 3f bd b7 5a 57 be 59 15 c0 3e
       -0.31040534 -0.046687573 -0.21030699 0.37516287
000070 c3 2b 68 be e5 bc 83 be be ee d4 be 52 df 40 be
       -0.22672944 -0.25730053 -0.41588396 -0.1883519
000080 85 bf 17 3e 4d a7 43 bf 21 d4 0b bf 69 68 c5 bd
       0.14819153 -0.76427156 -0.5462056 -0.09639055
000090 76 7f d5 be 53 79 db be ef f0 cb bd 7e 58 fe be
       -0.41698807 -0.42866 -0.09958064 -0.4967689
0000a0 93 43 29 be 79 a1 0f 3f db 0a 15 3f 97 e6 23 3f
       -0.16529684 0.5610576 0.5821969 0.6402373
0000b0 8c 23 a5 be 59 20 8e 3d 07 0b b8 3d 09 74 69 3e
       -0.32253683 0.069397636 0.08986478 0.2279817
0000c0 1e 8f 44 3d 21 03 6f 3e f1 87 48 3c 3e 80 37 be
       0.04798805 0.23341037 0.012239442 -0.17920014
0000d0 32 0e da bd a3 90 9e be 0d 80 a2 be 92 6f cc be
       -0.10647239 -0.30969724 -0.3173832 -0.3992887
0000e0 36 2d 0d 3c f5 d9 04 be e9 cc e7 be 0a a1 85 be
       0.008616736 -0.12973769 -0.45273522 -0.26099426
0000f0 62 81 a6 be ca d8 2d bf 01 ce 58 bf 3b 5c cf 3d
       -0.32520586 -0.6790892 -0.84689337 0.101250134
000100 6d 08 1b 3e c4 6b ca 3d cf b9 99 bd bc ee 71 be
       0.15139933 0.09883836 -0.07506143 -0.23626226
000110 20 ad b3 be 34 4b 08 bf 5f 8f 23 bf 66 65 d0 be
       -0.3509302 -0.5323975 -0.6389064 -0.4070236
000120 2c 14 4a 3e 10 c2 bf 3e cd e1 ab 3e 99 8e c6 bd
       0.19734257 0.37452745 0.3357071 -0.09695167
000130 84 32 95 3e f7 79 66 3d 8e f4 13 3f 5e c8 26 3f
       0.29140103 0.05626866 0.57795036 0.65149486
000140 83 e6 18 bd 35 c2 26 3f be 7a 5d 3f 25 93 26 3f
       -0.037329208 0.65140086 0.86515415 0.65068275
000150 e8 46 91 3e 54 1e 80 3e f9 ed 0a bf 8f 34 ff be
       0.2837441 0.2502314 -0.5426937 -0.49844787
000160 65 8b fa be c7 0e 9d bf 38 79 b3 3e fc ea 4c 3f
       -0.48934475 -1.2270135 0.3505342 0.8004606
000170 1a ab 7a 3e 4c de 4a bc 42 91 bb 3e 4d 75 b6 be
       0.24479333 -0.012382101 0.3663426 -0.35636368
000180 09 d3 69 bb 53 be 69 3f c3 4a 0a 3f 64 4f 52 3e
       -0.0035678765 0.91306037 0.5402033 0.20538098
000190 d1 59 37 3d dd c6 bd be 93 01 01 be 11 69 8d bd
       0.04476339 -0.37065783 -0.12598257 -0.069048055
0001a0 37 8d 00 bf 3a ca f3 be d9 d1 85 be 34 2f f3 be
       -0.50215477 -0.47615224 -0.26136664 -0.4749695
0001b0 78 96 19 3f 0b f9 69 3e 2b 24 03 3e 05 07 02 bf
       0.5999522 0.22848909 0.12806766 -0.5079196
0001c0 d6 9d fd be 88 1d 8e bd 8d db 2c bf 0d 35 9e be
       -0.49534482 -0.069392264 -0.6752251 -0.3089985
0001d0 d3 00 45 be cd 29 04 bf b7 98 2c bf 95 f1 07 bf
       -0.19238596 -0.5162628 -0.67420524 -0.53103
0001e0 69 18 c1 bd 55 e8 51 3d 1d ab b5 bd 6d f1 b2 3e
       -0.09428484 0.05124696 -0.08870528 0.34949818
0001f0 20 51 db 3e 84 34 ad bd 6d f6 33 3f 21 71 dc 3e
       0.4283533 -0.08457282 0.7029789 0.4305506
000200 72 ce 56 3f 1b f2 28 be a4 30 8e 3d a2 cf 5e 3d
       0.8390876 -0.16498606 0.06942871 0.054397233
000210 0d e1 da bd ff a9 7c be 0e 66 77 be a5 c8 2e be
       -0.10687456 -0.24674223 -0.24160025 -0.17068727
000220 72 bb af be 26 0a be be b1 9e 54 3f 16 72 42 3e
       -0.34322697 -0.37117118 0.83054644 0.18988833
000230 d1 2f d2 3d 28 ba 56 3f 4c 69 eb 3e 26 95 ab 3e
       0.102630265 0.838778 0.45978773 0.3351223

cnn_layers.4.bias f4 [4]
000000 17 7b f4 bd 2b 56 03 be 64 ca b9 3d d1 80 76 3d
       -0.1193754 -0.12825839 0.09071806 0.060181443

cnn_layers.5.weight f4 [4]
000000 b8 1e 9c 3f 48 f2 68 3e 61 9f 35 3f 9d 2b 5d 3f
       1.2196875 0.22748673 0.7094632 0.86394674

cnn_layers.5.bias f4 [4]
000000 56 e7 1e be 42 c3 d8 3c 06 1e 85 bd 7d b5 09 3e
       -0.15517935 0.026460294 -0.06499867 0.13448139

cnn_layers.5.running_mean f4 [4]
000000 e6 bc 66 c0 10 3a 3b c0 63 ff 20 3f 8a 3c 8f 3f
       -3.6052794 -2.9254189 0.6288969 1.119035

cnn_layers.5.running_var f4 [4]
000000 86 69 44 3f 7e b7 75 40 bc 30 d5 3f 20 cc 25 40
       0.76723516 3.8393245 1.6655498 2.5905838

cnn_layers.8.weight f4 [4, 4, 3, 3]
000000 9c 5b 84 3e 06 71 5e be 88 a5 0f be 98 79 2b 3e
       0.25851142 -0.21722803 -0.14027989 0.16745603
000010 25 18 05 bf 33 45 dc 3e 3d 6b 49 bf d1 86 62 bf
       -0.51989967 0.43021545 -0.7867926 -0.88486964
000020 1b f9 0f bf ab c5 39 be 59 0e d4 be b9 c0 e8 be
       -0.5623948 -0.1814181 -0.41417196 -0.45459536
000030 90 d2 8e 3e ff c7 b7 be 07 9c bb be 7e 37 4f 3e
       0.2789502 -0.35894772 -0.36642477 0.20236012
000040 18 9b 66 3e 88 37 9f 3d 58 e3 52 3e b5 a9 07 be
       0.22520101 0.077742636 0.20594537 -0.13248332
000050 a2 42 cb be 80 7a c0 3e dc 4c 73 bd 34 aa e7 be
       -0.39699274 0.3759346 -0.05939947 -0.45247042
000060 48 cb da 3e c7 bc 1d bf dd 52 4b bf 16 68 5d 3c
       0.42733216 -0.61616176 -0.79423314 0.013513586
000070 34 03 47 be 18 a5 bd be 7b e3 2e bf 6c b9 8c 3e
       -0.19434816 -0.3704002 -0.6831586 0.27485216
000080 46 bb 9b 3e c6 f2 46 3f c4 b5 15 be 67 ab b4 3f
       0.30416316 0.7771419 -0.1462012 1.4114808
000090 be d7 e9 be 8b d2 d0 be 97 be 71 be fc cc 6b 3f
       -0.4567241 -0.40785632 -0.2360786 0.92109656
0000a0 38 71 ff 3d db 97 ea be 45 d2 6a 3f 82 f7 27 3f
       0.12472767 -0.45818982 0.91727096 0.6561204
0000b0 ce 02 8f 3d f3 ea b8 3e 23 1f a0 3e f1 e3 97 3e
       0.06982957 0.36116752 0.31273755 0.29666093
0000c0 bb 4a 02 3f 1a 9a 10 3e cd 10 ab be 83 f4 e5 3e
       0.5089528 0.14121285 -0.33411255 0.4491311
0000d0 76 53 82 be 66 4e 7f be 8d 3c 58 be db 08 f0 3e
       -0.254543 -0.2493225 -0.21116848 0.46881756
0000e0 5c b9 97 3e 1f 57 ce 3d 7e 41 b5 be 9c 08 2a 3c
       0.29633605 0.10075211 -0.3540153 0.010378029
0000f0 6d e4 ab 3e 9f 9b 38 bf 85 e3 de be c6 5d b3 3e
       0.33572713 -0.7211246 -0.4353296 0.3503248
000100 0e ca 79 bd 1d b9 e7 3e ec 4c 05 be fb 75 ad 3e
       -0.06098371 0.45258418 -0.13017625 0.33879074
000110 74 dd 8c 3e f2 4b 13 bf c4 7f f7 bd 2f 71 08 be
       0.27512705 -0.5753776 -0.12084916 -0.13324426
000120 bb f7 4f bf 25 4e ea 3e 31 f9 8b 3e 31 22 2d 3f
       -0.8123738 0.45762745 0.27338555 0.67630297
000130 df 6c ac be 3a db ee be 71 00 0a bf 34 a4 7a 3f
       -0.33676812 -0.46651632 -0.53906924 0.97906804
000140 ce 84 2d bd 7e da 80 3e d5 c2 05 3f 6e fd 80 3f
       -0.04236298 0.25166696 0.52250415 1.0077341
000150 f1 35 0a 3f 4a e1 30 3f 47 90 54 3f 67 9f 89 3f
       0.5398856 0.69093764 0.8303265 1.0751771
000160 9b 00 2e 3f aa 9d a9 3e 86 1e f7 bb 64 72 73 bd
       0.67969674 0.331281 -0.0075414805 -0.059435263
000170 3b 69 8d 3e 59 ff 00 be 67 f6 0b 3f 24 8e 27 3f
       0.27619347 -0.12597407 0.54672855 0.65451264
000180 86 0d ca be d8 67 94 3f d4 0c 5d 3e a2 da 59 3f
       -0.39463443 1.1594191 0.21586925 0.8509923
000190 a5 52 77 3e e0 92 4e bf 30 07 af bd ac 69 18 be
       0.2415262 -0.80692863 -0.08546293 -0.1488406
0001a0 98 03 29 be 2a 2a 20 bb 81 62 b8 be 1e d1 da bd
       -0.16505277 -0.0024439194 -0.36012653 -0.10684417
0001b0 8f 3a 8c 3e 46 3f 7a 3c df e5 52 be d7 a9 09 bf
       0.27388427 0.015273875 -0.20595501 -0.5377478
0001c0 c2 92 a1 be 7b 5d e2 bd 4b a9 8e bd f6 d8 d1 be
       -0.3155728 -0.11052986 -0.06965884 -0.4098584
0001d0 31 0f 00 be fd aa 13 bf 93 aa 9f be 62 d1 98 3e
       -0.12505795 -0.5768278 -0.31184825 0.29847246
0001e0 15 97 e4 bd 20 d9 07 bf cf 08 0f 3f ae 27 d0 3d
       -0.11161629 -0.5306568 0.55872816 0.10163818
0001f0 30 a2 95 3e 7e 32 1f be 09 d5 0d bf 00 6e 53 be
       0.29225302 -0.15546605 -0.5540319 -0.2064743
000200 0b d4 41 3f c2 f0 32 3f 39 99 7b 3f 4f 3d 40 3f
       0.75714177 0.6989862 0.98280674 0.7509355
000210 7b b3 66 3e b6 f8 96 3f 85 6d e3 3e ff 4d 91 be
       0.22529404 1.179465 0.44419494 -0.2837982
000220 4a d3 9f 3d f9 73 21 be ad ab 01 bf b3 4f 09 bf
       0.07803972 -0.15766896 -0.5065258 -0.53637236
000230 a8 14 c4 be df ca fe be 69 8d 1c bf 89 37 24 3e
       -0.3829701 -0.49764153 -0.61153275 0.1603681

cnn_layers.8.bias f4 [4]
000000 a7 28 78 b9 d6 56 d4 bd 44 27 e6 3d d6 ab 8f bd
       -0.00023666267 -0.10368125 0.11237958 -0.07015197

cnn_layers.9.weight f4 [4]
000000 8a cd 4f 3f ab 78 5c 3f b6 8d 11 3f 97 03 58 3f
       0.81173 0.86121625 0.5685686 0.8438048

cnn_layers.9.bias f4 [4]
000000 26 44 f9 be 0a cd 62 bf fd 0b 88 be 89 a5 e7 be
       -0.48684806 -0.88594115 -0.26571646 -0.4524348

cnn_layers.9.running_mean f4 [4]
000000 d2 9e 1a bf be 53 ee 3e 53 32 9a 3f ad 42 0c bf
       -0.6039859 0.46548265 1.2046608 -0.5478924

cnn_layers.9.running_var f4 [4]
000000 3f 1c fb 3f c0 ba d7 3f 8d 0a ff 3f 9a c3 10 40
       1.9617995 1.6853867 1.9925095 2.2619386

linear_layers.0.weight f4 [4, 36]
000000 21 6d 7c be 73 69 47 3e 22 7e 5d bc 43 04 22 bf
       -0.24651004 0.1947382 -0.013518842 -0.6328775
000010 8e 13 80 be 5b 2c f9 3e 30 11 ad 3e 82 25 2d bf
       -0.2501492 0.48666653 0.33802176 -0.6763536
000020 2d fc 67 bf e4 b7 55 3f 0c ed 1b 3f e9 15 3e bf
       -0.90619165 0.8348372 0.6090858 -0.7425218
000030 d7 cd 7d bf 63 d7 20 3e 77 dc aa 3e de 47 1f be
       -0.9914221 0.15707164 0.33371326 -0.15554759
000040 ca e1 45 bf 86 70 e2 3e 0f 34 6a be 33 01 86 bf
       -0.7729765 0.44226474 -0.22871421 -1.0469116
000050 f9 c0 00 3f c0 93 32 3f 1b 41 5a 3e 1f 75 49 bf
       0.5029445 0.697567 0.21313898 -0.7869434
000060 03 1a 83 be e1 3e 66 3f 82 e8 08 3f 8a b4 42 3e
       -0.25605783 0.89939696 0.5347978 0.19014183
000070 d7 46 6e bf 88 66 2e bf f4 75 1c 3f 75 13 13 3f
       -0.93076843 -0.681252 0.6111748 0.57451564
000080 f6 16 bd be d7 20 78 bf ec ab eb 3e 65 2f 35 3f
       -0.3693158 -0.9692511 0.46029603 0.70775443
000090 20 10 80 bf 28 f4 47 bf c7 2b 97 3d 48 1c 02 3f
       -1.0004921 -0.7810693 0.07381397 0.50824404
0000a0 57 60 f8 3d c1 3a 84 3e da d9 23 3e e0 66 92 3e
       0.1212775 0.25826076 0.16001073 0.28594112
0000b0 4b 22 d4 be 6f 7e e5 3c e7 83 3c bf c8 99 85 3f
       -0.41432413 0.02801439 -0.73638767 1.0437555
0000c0 78 23 0d be 8c dc e3 be 43 c6 d9 be 87 4f 83 3f
       -0.13783062 -0.445042 -0.42534074 1.0258645
0000d0 2a 1f fe 3d a6 f8 65 be 68 b8 fe 3e 22 e4 8d 3e
       0.12408288 -0.22458133 0.49750066 0.27713114
0000e0 1d df 8a bf b3 f5 21 bf 45 7b a5 3e 74 0b 74 3e
       -1.0849339 -0.6326553 0.3232061 0.23832494
0000f0 9a 08 b6 bf e0 21 24 bf 86 9f 07 3c b0 4a 23 3f
       -1.4221375 -0.6411419 0.008277779 0.6378584
000100 9f b5 d5 3e 96 83 21 bf 23 e3 06 bf 5e 32 05 3f
       0.41740128 -0.6309141 -0.52690333 0.5202998
000110 e5 53 e9 3e cf 64 a6 be 2f bc 24 bf 11 bd 34 bd
       0.4557182 -0.32498786 -0.64349645 -0.04412562
000120 de de e0 be e0 5e 02 bf f6 17 1e 3f b5 65 0c 3f
       -0.43920034 -0.5092602 0.6175531 0.5484269
000130 ac 90 4f 3f 60 5a 4d 3d c3 c6 c2 3e 2c 17 cd 3e
       0.81080127 0.050135016 0.38042268 0.4005674
000140 63 06 70 bf 3c 59 b9 3c e5 05 63 3f e8 c1 1c bf
       -0.93759745 0.022625558 0.8868087 -0.6123338
000150 7a 24 f2 be 6e 8c 25 3e ef 3a 9b 3e 1a a4 c7 be
       -0.47293454 0.16166851 0.303184 -0.38992387
000160 a9 23 5e be a3 bc 2d be 99 cd 82 3e b6 04 ae 3e
       -0.21693291 -0.1696649 0.25547484 0.3398797
000170 63 b7 cb be 6d da 06 bf 9e 28 62 bf 51 59 ec 3d
       -0.3978835 -0.5267704 -0.88343227 0.11540473
000180 ae 23 ff be 71 d9 ae be 2a 60 ca 3e c4 12 f2 bb
       -0.4983191 -0.3415027 0.39526492 -0.007387491
000190 34 df 07 3e 1e 4d 29 3e 75 5b 19 be a9 15 93 be
       0.13268739 0.16533324 -0.14976294 -0.28727463
0001a0 fd 68 06 bc c8 1b 6b 3e 5f b7 57 be 59 fb 71 3e
       -0.008203742 0.22959816 -0.21066044 0.23631038
0001b0 8f 6b 8c 3f ec 4b 08 3f 11 c6 44 bf 65 4a 0c bf
       1.0970324 0.5324085 -0.76864725 -0.5480102
0001c0 09 58 f6 be f8 10 95 bf b8 c2 0c bf 15 0d b3 3e
       -0.4811404 -1.1645803 -0.5498462 0.34970918
0001d0 c9 f9 7d 3f ed e5 83 be 23 97 52 bf 54 4c c0 be
       0.99209267 -0.25761357 -0.82261866 -0.37558234
0001e0 46 f9 2b 3f b9 fa a4 3e 06 85 ed bd b8 96 bd be
       0.67177236 0.32222536 -0.11597638 -0.37029052
0001f0 04 32 2e 3f b5 70 b7 3d 55 b1 04 bf a2 7b ff bd
       0.6804507 0.08957044 -0.5183309 -0.12474753
000200 bb 63 02 3f d3 1d 9a 3e 04 f0 80 be 25 5b 7f 3e
       0.50933427 0.3010088 -0.25183117 0.24937113
000210 06 f8 6f 3f 25 08 42 3e 9f a4 ed be 0c ff 2c bf
       0.9373783 0.1894842 -0.46414658 -0.6757667
000220 1c 02 8c bd 8e c9 1a 3f 83 1c 78 3d f9 04 6c be
       -0.0683634 0.604638 0.060574066 -0.23048772
000230 73 58 fc bd f3 f1 10 3f ce f8 14 3f 9f 45 e8 be
       -0.12321558 0.56619185 0.58192146 -0.45365617

linear_layers.0.bias f4 [4]
000000 f7 46 f3 bd c6 a2 da be e0 ef 24 3e e5 98 71 3e
       -0.1187877 -0.4270231 0.1610713 0.23593481
